nets/90-network-14000-rows.pt (torch_old, 11807 bytes, 4 tensors)

weight f4 [6, 26]
00000000: 950a 54c0 8514 12bf 8a32 21bf b9d5 3ec0
00000010: d617 173f 3641 d2be 00c4 f3c0 b492 eb3d
00000020: 45fd 093f 1903 a13d 6e63 71c0 b285 dc3e
00000030: 259c 31bf fe45 383d 9981 babf 79b0 d43e
00000040: ae3d 1e3f 74b5 123f e7bd e9bd 404f 483f
00000050: 7fe2 233f 3fcb 2a3f 278d 9ebd b0b6 903f
00000060: 79cf 5fbf 7aae 68be e855 e73f 19ae 8b3f
00000070: bba0 c0be 2afe 343f ac69 20be 3478 7f3e
00000080: dbd4 ce40 5049 90bf 2a5f 60bf 0e2a 26be
00000090: e51d 0540 3464 ecbe 1385 1f3e 6277 953f
000000a0: bc8f 193c 407c 7bbc 2d7f d73e 9a0a c63e
000000b0: 85af 7d3f 3f1d 8cbf be3e ba3e ba3e 133f
000000c0: 2e94 333f 0fe8 823e 3dc4 623e 32fd 393f
000000d0: 2760 3e40 0570 e7bf bc1b 783d c465 8ebf
000000e0: 53ce 273f bec0 ff3e edd4 3e40 2347 413f
000000f0: 053d a93e f9ce 563e 46c4 3f3e 9c4e a43e
00000100: 3e6c 723f af26 b53e a198 b63e 13f2 a13f
00000110: f2af 903e 1655 ef3d a6d5 2bbe 02ac 1e3f
00000120: 8859 913e ae99 d53e 61f6 a63e c25e 5e3e
00000130: c20f c53c c1b2 edbe eab3 b63e e3e9 c9bf
00000140: 9e76 083c b6cb e93f 0805 8e3e 0b8d d13e
00000150: 690a 0240 6b22 9a3e b7d2 003c 0f0f 86bf
00000160: 505e 9bbf c2f2 e4bc 43a1 283f 347b 0ebf
00000170: de61 293f af84 843f 5ef9 41be 2375 9d3e
00000180: 16c0 fe3d 7ad6 b93e ab77 f8be 7be0 d33e
00000190: 17fe d6be 9d00 6fbf 00ef afbd d528 1040
000001a0: 952c 813e d2b0 b8bf a46b 5c3e 48e7 8040
000001b0: 824b 643e 8827 26bf b19f ac40 6975 b3bd
000001c0: af28 2fbd b208 973e 4d98 1540 2e18 243f
000001d0: ad94 7bbe b47d da3d f637 993f a680 51bd
000001e0: 9131 c6be ab62 3f3f 38c9 103e ebcc 013f
000001f0: f6f1 753f 51a9 943e ad10 ad3f d10c 65bf
00000200: 5511 05bf 989f ec3d 4dc8 2e40 af81 2340
00000210: f39c 783d 7a97 1240 f308 253e 6292 03be
00000220: d146 bc3f 1160 dfbe f0d1 753e 7d0d ab3f
00000230: 6b42 0a40 5a01 28bf 96f1 a5be 962a 20be
00000240: 54ea 733f 3653 29bf 3511 663b f6ac 56bd
00000250: e516 8d3f 00e5 b6be 6de4 e9be af20 0ebf
00000260: 75bd 8ebe 7f2f e9bf 062a bdbe 982d 3fbf
-3.3131459 -0.5706256 -0.6296774 -2.9817946 0.59020746 -0.41065377 -7.617676 0.11502591
0.53902084 0.07861919 -3.7716937 0.4307075 -0.6937888 0.044988625 -1.45708 0.41540888
0.61812866 0.57308125 -0.11413174 0.78245926 0.6401748 0.6671638 -0.077417664 1.1305752
-0.87425953 -0.22722808 1.8073092 1.0912505 -0.37622628 0.70700324 -0.1566531 0.24948198
6.4634833 -1.1272373 -0.8764521 -0.1622698 2.0799496 -0.461702 0.15578108 1.1677058
0.009372648 -0.015349448 0.42089215 0.38679963 0.99095947 -1.0946425 0.36375993 0.5751759
0.7014798 0.25567672 0.22145171 0.7265197 2.9746187 -1.8081061 0.060573325 -1.1124806
0.655492 0.49951738 2.981746 0.7549917 0.33054367 0.20977391 0.18727216 0.32091224
0.94696414 0.35381076 0.35663322 1.2652 0.28259236 0.11686151 -0.16780719 0.61981213
0.2838862 0.4171881 0.32609847 0.21715835 0.024055365 -0.4642544 0.3568414 -1.5774502
0.008329062 1.8265293 0.27738214 0.4092792 2.0318854 0.30104384 0.007862738 -1.0473346
-1.2138157 -0.027947787 0.65871066 -0.55656743 0.6616496 1.0352992 -0.18942782 0.3075343
0.12438981 0.36296445 -0.485288 0.41382203 -0.4199073 -0.9336031 -0.085905075 2.2524922
0.25229326 -1.4428961 0.21525437 4.0282326 0.22294429 -0.6490407 5.3944936 -0.087626286
-0.04276341 0.29498821 2.3374207 0.64099395 -0.24568434 0.10668507 1.1970203 -0.05114808
-0.3870969 0.7475993 0.14139259 0.50703305 0.9607233 0.29035428 1.3520714 -0.8947268
-0.5197957 0.115538776 2.7309754 2.5547903 0.060696553 2.2904954 0.16116695 -0.1284881
1.4709111 -0.4362798 0.24005866 1.3363491 2.1603038 -0.6562706 -0.32410878 -0.15641245
0.9527943 -0.66142595 0.003510547 -0.052411042 1.1022612 -0.35721588 -0.45682088 -0.5551862
-0.2787892 -1.821762 -0.36946124 -0.74678946

bias f4 [6]
00000000: 61a4 dabd 4bd1 90c0 9cb4 95c0 ccfa 94c0
00000010: 5adf 9dc0 202c acc0
-0.10675884 -4.5255485 -4.678297 -4.655615 -4.9335146 -5.3803864

weight f4 [2, 6]
00000000: 46a3 873d c120 21bf e6ce 13bf f580 0fbd
00000010: 4d65 3dbf 0daf 5fbd 3de8 debe 3f32 a53e
00000020: 3568 373f 1e49 db3e 13eb 273f 4a5c ce3e
0.06622939 -0.62940603 -0.57737577 -0.035035092 -0.739827 -0.0546103 -0.4353656 0.32264897
0.7164338 0.4282922 0.6559307 0.40304786

bias f4 [2]
00000000: 3cab 073f 204b c4bd
0.5299566 -0.095846415
