nets/90-network.pt (torch_old, 11807 bytes, 4 tensors)

weight f4 [6, 26]
0.8163153 -0.7187234 -0.07735094 2.7718177 0.031417493 -0.78981346 3.4273317 0.7431292
0.052921716 0.19488157 0.5823952 0.16246447 -0.11170523 0.20741035 -1.1482065 -0.008321978
-0.11406424 0.17719328 0.4334015 -0.1865285 0.3461524 0.5886088 0.5219 0.42786798
-0.55285615 -0.07214564 -0.91669 0.00023428 0.14539397 -1.0449739 0.32424393 -0.7041032
-3.25333 -0.22814466 0.07359474 -0.08774739 -1.3354131 -0.17323391 -1.060078 0.13169506
-0.5448284 -0.42838487 0.37122378 -0.20241757 -0.8550375 -0.34704998 -0.43279415 0.25538573
0.3304825 0.13073982 -0.36207145 0.22631866 -2.5757465 0.08920458 0.060091343 -1.8841393
0.35897532 -0.35577604 -4.6822977 -0.8619912 0.23139906 0.7430487 -1.9227173 0.47099546
-0.008226315 -0.33565718 -1.1418881 0.1291306 0.63919747 0.38847402 -0.25699726 0.2501458
-0.29427296 0.5699847 0.63882047 0.82176703 0.09413987 0.26375115 1.5390806 -0.31372088
-0.79146105 -0.06716201 0.6233057 -0.13574791 3.4517295 -0.3058004 -0.08073574 -0.55279666
2.5581238 -0.3796913 -0.43072778 0.16683768 1.5192177 0.62093073 0.33876064 -0.24109481
-0.5136767 -0.014985231 -0.45555994 0.5109922 0.7567652 0.49439925 0.7412288 0.8226645
1.0951594 1.1758112 0.866025 0.4849367 0.365896 -0.17986591 1.5152643 -0.45254406
0.08075848 1.2295036 0.46737945 -0.19930279 -0.70586276 -0.35945597 0.34453335 -1.1195394
0.0042867213 0.6493301 -0.28156298 0.15889984 0.54999137 -0.61574876 0.30324602 -0.357017
-1.156651 -0.25589985 0.7692101 -0.50292844 0.27288702 2.3201156 -0.14419092 1.048182
2.1256099 0.54366904 0.03179165 1.0687772 1.2595491 0.45462504 -0.43791068 0.60017437
0.6322556 -0.03339226 -0.5816937 0.38822773 0.49358603 -0.115340844 0.09307003 -0.0007175072
-0.054107305 -0.80284363 -0.5508586 -0.051047236
00000000: 0afa 503f 42fe 37bf 2b6a 9ebd 7665 3140
00000010: a1af 003d 3731 4abf 6759 5b40 b73d 3e3f
00000020: 71c4 583d 098f 473e da17 153f 165d 263e
00000030: b6c5 e4bd 6163 543e 6ef8 92bf e858 08bc
00000040: 839a e9bd 2872 353e cde6 dd3e 5401 3fbe
00000050: e33a b13e 11af 163f 3d9b 053f 8311 db3e
00000060: fb87 0dbf 18c1 93bd 32ac 6abf 0fa9 7539
00000070: 28e2 143e b4c1 85bf 4d03 a63e 1b40 34bf
00000080: 8f36 50c0 c19e 69be d7b8 963d e7b4 b3bd
00000090: d1ee aabf 3b64 31be a3b0 87bf 12db 063e
000000a0: e079 0bbf 4355 dbbe 0b11 be3e 8d46 4fbe
000000b0: bde3 5abf 89b0 b1be 3297 ddbe ebc1 823e
000000c0: 0135 a93e a9e0 053e 6e61 b9be 14c0 673e
000000d0: 08d9 24c0 e4b0 b63d 5722 763d 7a2b f1bf
000000e0: 9dcb b73e 4728 b6be 62d5 95c0 75ab 5cbf
000000f0: e0f3 6c3e 7138 3e3f 9a1b f6bf 5126 f13e
00000100: aac7 06bc 42db abbe 6429 92bf d03a 043e
00000110: 72a2 233f 11e6 c63e 2595 83be 1c13 803e
00000120: f2aa 96be 84ea 113f bd89 233f 535f 523f
00000130: 67cc c03d 640a 873e 9800 c53f 06a0 a0be
00000140: 319d 4abf 3c8c 89bd f690 1f3f 8001 0bbe
00000150: 23e9 5c40 df91 9cbe c858 a5bd 1584 0dbf
00000160: 4db8 2340 e666 c2be 5a88 dcbe 7fd7 2a3e
00000170: ba75 c23f 51f5 1e3f 0972 ad3e 8fe1 76be
00000180: 5180 03bf 9d84 75bc 273f e9be 63d0 023f
00000190: 5dbb 413f e621 fd3e 2cc1 3d3f 249a 523f
000001a0: 2f2e 8c3f fb80 963f d0b3 5d3f a049 f83e
000001b0: b856 bb3e c52e 38be 2ef4 c13f dbb3 e7be
000001c0: b464 a53d 6060 9d3f 5c4c ef3e 0816 4cbe
000001d0: 6cb3 34bf 9d0a b8be ad66 b03e 114d 8fbf
000001e0: a077 8c3b 7f3a 263f 0629 90be a4b6 223e
000001f0: 3ccc 0c3f b6a1 1dbf 1043 9b3e efca b6be
00000200: 240d 94bf 4e05 83be f4ea 443f ebbf 00bf
00000210: d9b7 8b3e c67c 1440 c9a6 13be d42a 863f
00000220: fe09 0840 e52d 0b3f f637 023d b1cd 883f
00000230: e838 a13f 9dc4 e83e d435 e0be 07a5 193f
00000240: 81db 213f 53c6 08bd e1e9 14bf c9c5 c63e
00000250: 4fb7 fc3e d237 ecbd 809b be3d 1817 3cba
00000260: 9f9f 5dbd 2987 4dbf 1205 0dbf e816 51bd

bias f4 [6]
-2.6308274 -0.7713157 -0.21745853 -2.980043 -2.5361946 -2.510496
00000000: 7a5f 28c0 f274 45bf 73ad 5ebe 06b9 3ec0
00000010: 0351 22c0 f7ab 20c0

weight f4 [2, 6]
-0.5816181 0.06282352 0.505678 -0.95390344 -0.6038489 -0.21002667 0.53130233 -0.4653592
-0.22231825 0.9143026 0.40799326 0.595288
00000000: ece4 14bf 9ea9 803d 1d74 013f 0433 74bf
00000010: d795 1abf 3b11 57be 6e03 083f 9043 eebe
00000020: 65a7 63be bc0f 6a3f 7ee4 d03e cb64 183f

bias f4 [2]
0.31786436 -0.30547357
00000000: 1ebf a23e 0867 9cbe
