nets/90-network-70000-rows.pt (torch_old, 11807 bytes, 4 tensors)

weight f4 [6, 26]
00000000: 1289 2fc0 6798 a93f b0a9 473c 831e 3dc0
00000010: e597 723e 5d7d 57be 79b9 10c1 e3e1 a63e
00000020: e072 0c3d 08f8 9e3e f335 88c0 2619 5f3f
00000030: 3e92 19be b9c3 f93e 1fd3 d8be 1bd5 b7bd
00000040: 46df c53d 357f ed3e 87bb b0bf d23c a73f
00000050: 8fd2 e93e 46fd 4e3f e879 9cbe 8eae 613f
00000060: da3b a0be 8b66 91be 0422 d23f acd6 77be
00000070: f8bb 03be bcab e340 ba9e 49be bb3e 113f
00000080: 748a 2641 5536 af3e 75a9 293f 9447 2bbe
00000090: 6491 9e40 33da 23bf 9bb5 9c3e 1bde ce3f
000000a0: 6c0b e63f 992f a0be 4b13 f0be abde 903f
000000b0: 9075 a33f 8cf1 5fbf c9c7 5cbe 29be 0fbf
000000c0: 4d29 08bf 179c 62bf 85e5 3cbe ab89 a3bd
000000d0: 050d 03c0 f1b0 b1bf 4d59 4c3e 7057 a5bf
000000e0: 2945 62be 286b 0b3d b1a9 02c1 e24f 83bf
000000f0: bede 6f3d 3227 e43d 0b03 06c0 4849 543e
00000100: e0a3 163f a622 673f 0b0a 2ec0 d270 47bf
00000110: 96f8 0a3e d628 8f3f 67e9 17bf f55e 7abf
00000120: e4a6 19bf 1785 51bf 341b 09bf 7ade 123d
00000130: 704f 8cbe d9c0 3ebf a569 75c0 50ab ddbe
00000140: da21 00be 8f14 45c0 0898 34bc 3262 8dbe
00000150: 8f9d 10c1 e685 b3bf dbef 213e 78d8 863e
00000160: 55cb 90c0 35a9 c83e e700 b0be c96c 15c0
00000170: 6438 f2bf a4a1 7abe d2f1 383e d81f 32be
00000180: f6bd 45bf 7f85 f5be 412e 363f f1b4 3cbe
00000190: 57ab 223e 2f6f 103f c3fe 0e3e ef6c 9dbf
000001a0: 5014 de40 e28c 043e 3631 f3be 4606 9b3f
000001b0: dd5b 873f 41d1 a03e 622f 2f41 ad55 8f3f
000001c0: 79c8 3abf 8130 933f 2991 1a40 f683 10bf
000001d0: bb5e aa3e 4ff5 ad3f fc11 e93e 0ef4 5cbf
000001e0: b532 61be b103 853f f241 6e3f 5901 1b3d
000001f0: 9a8c 413e bd08 1bbe 5a63 3a3f 8773 4b3f
00000200: 316f f03e 6761 2e3f a766 41c0 022e 55be
00000210: 5fbe 1dbe eda2 40c0 b7f1 c73e 59c6 9ebf
00000220: b6a4 e3c0 ac42 053e 6aae 523f ee0f bfbe
00000230: b7b3 8ac0 dc02 b83e 9c21 efbd eafe d73e
00000240: b8fe 96bf d148 2fbf 6c3f 953f 1d22 bcbf
00000250: c816 87bf 9d29 efbd 529a 483e 0496 803e
00000260: 20c6 c13e f59e 103f 203c 9b3e 0e2f d5bd
-2.742741 1.3249635 0.012186453 -2.9549873 0.23690756 -0.21043916 -9.045281 0.32594213
0.03428924 0.31048608 -4.2565856 0.8714775 -0.14997193 0.48782137 -0.42348573 -0.089761935
0.09661727 0.46386114 -1.3807229 1.3065436 0.45668456 0.80855215 -0.30561757 0.88156974
-0.31295663 -0.28398547 1.6416631 -0.24202985 -0.12864673 7.1147137 -0.19689456 0.56736344
10.408802 0.3422114 0.66274196 -0.16726524 4.955248 -0.6400482 0.30607304 1.6161531
1.7972236 -0.31286314 -0.4688972 1.1317953 1.2770252 -0.87477946 -0.21560587 -0.56149536
-0.5318802 -0.88519424 -0.1844693 -0.079852425 -2.0476696 -1.3882123 0.1995594 -1.2917309
-0.22096695 0.03403774 -8.166429 -1.0258753 0.058562033 0.111402884 -2.0939357 0.2073108
0.58843803 0.90287244 -2.719363 -0.77906525 0.1357139 1.1184337 -0.5934052 -0.9780114
-0.6002028 -0.81843704 -0.53557134 0.0358567 -0.27404356 -0.7451301 -3.834573 -0.43294764
-0.12512913 -3.0793798 -0.011022575 -0.2761398 -9.038466 -1.4025238 0.15814154 0.26337028
-4.524821 0.39191595 -0.34375688 -2.3347647 -1.8923459 -0.24475724 0.18060997 -0.1739496
-0.7724298 -0.47953412 0.7116433 -0.18428399 0.15885673 0.5641965 0.13964371 -1.2298869
6.9399796 0.12944368 -0.47498482 1.211129 1.057491 0.31409648 10.949068 1.1198021
-0.72962147 1.1499177 2.4151099 -0.56451356 0.332754 1.3590487 0.45521533 -0.863099
-0.21992 1.0391752 0.93069375 0.037843082 0.18901291 -0.15140052 0.7280785 0.79473156
0.46959832 0.68117374 -3.0218904 -0.20818332 -0.15404652 -3.0099442 0.390516 -1.2404281
-7.1138563 0.13013715 0.82297385 -0.3731684 -4.334438 0.35939682 -0.11676332 0.42186671
-1.1796484 -0.68470484 1.165998 -1.469791 -1.0553827 -0.11677859 0.19590119 0.25114453
0.3784647 0.5649255 0.3031931 -0.104093656

bias f4 [6]
00000000: 55a8 74c0 c057 0bc1 d2af 81c0 b596 4cc0
00000010: 7903 1bc1 4f74 37c0
-3.8227742 -8.708923 -4.0527124 -3.1966984 -9.688348 -2.866474

weight f4 [2, 6]
00000000: b6ee 3d3f e78f 84bf 3326 833e ee52 143f
00000010: f4ba c4bf ea27 a53e b183 17bf 47f4 ac3f
00000020: 6c32 b7be 2282 f9bd d6cb b93f 4cb3 8d3b
0.7419237 -1.0356416 0.2561508 0.5793904 -1.5369554 0.32257015 -0.5918532 1.3512048
-0.35780656 -0.12183024 1.4515331 0.0043243524

bias f4 [2]
00000000: 7d86 8d3e 86c3 4dbe
0.2764167 -0.20094118
