nets/90-network-70000-rows.pt (torch_old, 11807 bytes, 4 tensors)

weight f4 [6, 26]
000000 e9 b8 98 40 09 1a 54 3e 73 41 53 bf 95 58 6c 3f
       4.772572 0.20713057 -0.8252174 0.92322665
000010 5e e9 1a 3f ff 60 16 3f 3d ed 43 41 d9 56 65 3f
       0.6051234 0.58741754 12.2454195 0.89585644
000020 ca e4 a1 be a7 57 99 be 2f 7e 8a 40 fb c1 37 bf
       -0.31619865 -0.29949686 4.3279033 -0.71780366
000030 18 32 e5 3e c6 78 9a 3f 40 6c 9c 3f 61 15 20 be
       0.4476478 1.2068107 1.2220535 -0.15633155
000040 ac 92 83 3e 4c 40 b6 3f c1 b6 98 3f 4b 39 6b bf
       0.2569784 1.4238372 1.1930772 -0.918843
000050 b8 c1 35 be 63 8c 3d bf 5d 2f c2 3f c7 34 33 3d
       -0.17749679 -0.7404234 1.5170704 0.043751504
000060 09 95 9d 3f f5 90 34 3f f0 38 17 40 55 98 21 bf
       1.2311107 0.70533687 2.3628502 -0.63123065
000070 bd 52 1f 3f c0 3b 0d 41 63 d6 5e bf f6 2a 70 3f
       0.62235624 8.827087 -0.8704588 0.93815553
000080 37 52 1a 41 3d 31 b5 3f 71 e1 3e 3e 7c b9 3e 3f
       9.645072 1.4155651 0.18640687 0.74501777
000090 73 bd 74 40 70 f7 12 3f a7 28 65 3e 69 69 7a 3f
       3.824063 0.5740881 0.22378789 0.97817093
0000a0 3a 4a ea 3f 7f 2c 8e bf 86 9b e3 3d 2e 41 45 3f
       1.8303902 -1.1107329 0.11113648 0.7705258
0000b0 69 c3 99 3f 93 a5 dc bd 21 89 92 3e a9 73 a7 be
       1.201276 -0.10773768 0.28620246 -0.3270543
0000c0 6d fb 28 3e c1 05 e9 bf ca c4 02 bf 0b 7f f5 be
       0.16502161 -1.8204881 -0.51081526 -0.4794849
0000d0 bd e5 99 c0 9e 1c 02 bd 05 4a ee 3d 5a 9f 7e c0
       -4.809294 -0.031765573 0.11635212 -3.978476
0000e0 f1 28 c3 be eb 00 e7 be 3e 73 1c c1 06 29 5d 3e
       -0.38117173 -0.45117888 -9.778135 0.2159768
0000f0 b5 74 cb 3d dd c3 ea 3e d3 00 9a c0 17 e1 84 3f
       0.099343695 0.45852557 -4.8126006 1.0381192
000100 ba 2e 33 bf 39 61 e5 bf 40 dc d4 bf 0f 0e 86 3f
       -0.69993174 -1.7920295 -1.6629715 1.047304
000110 b9 94 e0 be 55 c3 c5 be 72 bc 88 bf 8d 60 98 bc
       -0.43863466 -0.3862559 -1.0682509 -0.018600727
000120 7d 1d f4 3e d2 f6 49 3e ca 42 8b be 5c 69 78 3f
       0.47678748 0.1972306 -0.27199394 0.97035766
000130 d3 13 a1 3a 54 dd 3b bf 8a c7 47 c0 24 ad bd be
       0.0012289233 -0.73384595 -3.121554 -0.37046158
000140 36 9e d6 bd 2a ba 59 c0 6a 52 21 3f 72 1f 81 bf
       -0.10479395 -3.4019876 0.6301638 -1.0087721
000150 af 53 14 c1 97 b5 e6 3e ea bd 82 3e 32 bc 2d 3e
       -9.270431 0.45060417 0.25535518 0.16966322
000160 c8 5f 98 c0 b3 83 c7 3e 6f a2 c0 be 73 41 91 3f
       -4.761692 0.38967666 -0.37623927 1.1348099
000170 67 29 8b bf 46 18 73 3d 4d 5e c1 bd b4 80 9a 3f
       -1.087201 0.05934932 -0.094418146 1.2070527
000180 e8 1f ae bf e1 84 42 bf d6 e4 a3 3e e4 91 8f bd
       -1.3603487 -0.7598401 0.32010525 -0.07010248
000190 80 d7 04 bf 01 97 2c 3f 4b 6f 9f be 3b 1e f7 bd
       -0.51891327 0.67417914 -0.31139597 -0.12066313
0001a0 34 e2 3f c0 a9 a8 aa bf 31 d0 13 3d f3 f5 1a c0
       -2.9981813 -1.3332721 0.03608722 -2.4212615
0001b0 30 ab 76 3e 52 1b 05 bf f4 f5 05 c1 44 6f 37 bf
       0.2408874 -0.5199481 -8.372547 -0.7165415
0001c0 99 49 d8 bd ba cb 3e bf 7b ba 38 c0 b4 eb ad 3e
       -0.10560913 -0.7452961 -2.8863819 0.3396889
0001d0 f5 df 72 3e 3d 91 9e bd 06 e5 03 c0 bd 81 ba bf
       0.23718245 -0.07742546 -2.0608535 -1.4570843
0001e0 41 10 5c 3f 8c 5c e6 be 36 11 f0 be 05 9b eb 3d
       0.859623 -0.44992483 -0.4688813 0.11504177
0001f0 e1 32 a4 bf 8d c7 98 bf af a7 17 3f c4 1f 8a 3d
       -1.2828027 -1.1935898 0.5924024 0.0674434
000200 3f 86 13 bf 95 65 77 bf 90 fa 03 c0 8b e4 af 3e
       -0.5762672 -0.96639377 -2.0621681 0.34354052
000210 33 73 ca bf f5 4a 0d c0 16 57 7f 3e a5 e1 fa bd
       -1.5816406 -2.2077 0.24935564 -0.122500695
000220 98 cd b5 c0 b1 09 96 3e 06 97 09 be 09 cc dc bd
       -5.681347 0.2930427 -0.13436517 -0.10781104
000230 a2 23 30 c0 2e a9 0b 3f 63 4c d9 be be 9c b6 3f
       -2.7521749 0.5455502 -0.4244109 1.4266584
000240 24 8e d4 be 2c 27 ee bd f5 c6 36 3f 9f 63 06 be
       -0.41514695 -0.11628565 0.71397334 -0.1312394
000250 21 27 04 bf fa 7f 33 3b df c2 21 3f 94 a4 4c 3f
       -0.51622206 0.0027389512 0.63187975 0.79938626
000260 7e 2b 4e bf e9 2b 80 3f 17 0d d1 3e 53 6f ed be
       -0.80535114 1.00134 0.408303 -0.46373996

bias f4 [6]
000000 e5 d4 17 c1 8d 73 25 c1 77 de 06 c0 69 dd 81 c0
       -9.489476 -10.340711 -2.1073282 -4.0582776
000010 48 37 46 c0 3d bb 66 c0
       -3.097124 -3.605178

weight f4 [2, 6]
000000 fb 54 2a bf 5d 94 99 be f1 e2 17 3e c7 3b ff 3e
       -0.6653592 -0.29996005 0.14832665 0.49850294
000010 5c e0 2b 3f fb 11 81 3e 90 9f ed 3e 01 bc 1d 3f
       0.6713922 0.2520903 0.464108 0.61614996
000020 62 c6 ca be 4a 1a 2f be e2 df 03 bf ad 09 03 be
       -0.3960448 -0.17099872 -0.51513493 -0.1279666

bias f4 [2]
000000 87 b3 4a be 11 17 00 bf
       -0.19795047 -0.50035197
